Assets/ANN File/FinalVersion/CarBehaviour.onnx (onnx, 128927 bytes, 6 tensors)

action_model._discrete_distribution.branches.0.bias f4 [4]
00000000: 2c15 b7bc 0ba6 743b d320 73bc 3890 bd3c
-0.022348963 0.0037330415 -0.014839369 0.023140058

action_model._discrete_distribution.branches.0.weight f4 [4, 128]
00000000: 5a53 5ebd c152 d73c 675d 09bd c952 b0bc
00000010: 23e4 d3bb aec2 bfbc 6e62 873c c38a 913c
00000020: fff4 033d 4670 8f3c 8362 c6bb 216a db3c
00000030: 03ea 9b3c 4d5c 153c 9708 333c 61a0 5c3c
00000040: 959b 933c 74cb 3cbd 5672 23bc ac8b 013d
00000050: 32a2 ff3b 0ff7 0cbc dd58 2c3d ce7e 0a3d
00000060: 3f72 24bc 86ff 723b 15b1 de3a c7bd 043d
00000070: 67d7 e4bc 751c 03bc 6a28 73bd 90a5 05bc
00000080: d9af 2c3d 8161 1ebd d17b bd3c ed08 f2bc
00000090: a21e 263c 5b76 9abb 26d4 85bc 7a12 64bb
000000a0: d0c2 de3d 5a1d 40bc 39be 263c cbf4 1b3b
000000b0: 75a3 c93b 7f5a 99bd 03c4 443c 9af9 1d3d
000000c0: a55d f53c f055 05bd adc1 9cbd 5250 90bc
000000d0: 2c7f 883d d3bc c0bc bbfb 0cbd 372b 4d3d
000000e0: fd08 aa3b c827 153d 5339 19bd d91a 033d
000000f0: 9ecd afbc f6e3 42bd 8c0f 4a3d 15dd 063d
00000100: d44c c8bd d2d6 a73c 3b3e 60bc 8165 3f3d
00000110: e019 d8ba 972e 033d 6fcf 9dbb 340c 09bd
00000120: 9a4e 34ba a90b 33bc 09e2 2c3d 9311 083c
00000130: 522f 4fbb 2f00 18bd cde2 31bc 200a f2bb
00000140: eece 3a3d 4aac e33c 35de b0bc 56b1 44bc
00000150: 54b4 ca3c 9d1f 01bc 2a5b 9bbd 95da 453c
00000160: 88be 70bc 3e6a 19bc 6149 e53d ff10 02bd
00000170: b288 1fbd f2be 2cbb f75c 17bd 987a 4fbb
00000180: 17a5 633d 34e6 b0bd 0bb3 803c 3535 bb3d
00000190: 3cca efba cad2 883d 264c a5bc aa15 1a3c
000001a0: a7d5 b53c d844 f239 cf7c 1cbc 9048 cebc
000001b0: f346 5abd e6f1 e83b 4e52 193d 3efd 12bc
000001c0: b104 7dbd 42f5 b13b fb38 f73b 4cda 953c
000001d0: ed72 13bd 4da8 b73b bf10 113d 1b93 13bc
000001e0: d6ff 473b 60df d5bb bc4f 743b 4813 2b3c
000001f0: 3bf9 313d 737d 59bd ab3d 12bd 0069 343c
00000200: 05bf 20bc 4037 d2bc 08c7 983d 630b c53c
00000210: 97bd 9bbd ec0e 64bd 2f08 a33d c188 cf3c
00000220: 7630 5ebd 0558 e9bb ef41 ba3c efc5 4dbd
00000230: 37ae 7e3c 3dbe ccbc af04 aabd 655a 2a3c
00000240: 40a9 043d 2980 26bc 0164 613d 3dc6 b7bc
00000250: ea79 95bd 552a b33d 2d23 8bbc 7b3b e13b
00000260: 7e86 033d b2e2 b7bc 8743 85bd a8ad a6bd
00000270: b703 1fbd 262a 493d 4fa7 be3c 716f 15bd
00000280: a82a d93d e29c 843d 39de cebc 32d7 603b
00000290: beb6 b8bd ff29 983d 0db1 2d3d c9d8 853d
000002a0: a540 f6bd da2f 89bd d28f 86bd 164c 5f3c
000002b0: de6f 87bd 1f07 7cbd 3eb4 133d 06b8 b2bb
000002c0: db7a 75bd ff01 05bd 2482 4a3e 07db 2c3d
000002d0: 5c24 e6bc bf19 323d 9bd8 303d 219c a5bd
000002e0: e420 8f3c 99b8 aebc d113 06bd 3c31 f53b
000002f0: 41f0 fabc 2f68 783d 19b7 8c3d 6945 dc3c
00000300: fefc a0bc 79fc 6a3c c185 2d3d 35fa 0ebd
00000310: 189c cbbc c7f4 fe3b 1753 ce3b f7d9 723e
00000320: 7c2d 1dbd 61fc 923d 7129 f3bc 98f4 a5bd
00000330: 8000 f939 cc60 c33c 4d40 5bba 883e b93d
00000340: bb40 1bbd 04a4 1dbd c647 95bd 234a 1e3d
00000350: 9b55 a83c 30c4 09bd 5584 e2bc b1bf 8f3a
00000360: fbae e5bd 9660 f5ba bfa8 3dbe 7dfa d33d
00000370: 0969 323d 5640 223d 0ede 103d 2fa9 f2bc
00000380: 8922 de3b d2a8 6abd c9ef 803d 8945 d8bd
00000390: 716e b03d c184 ecbc af20 1d3d d021 a73c
000003a0: df5a b63d 44ca 223d cd4a 933d 8689 65bb
000003b0: 5ed1 a8bd 7934 113d c6d5 79bb dc8f a83b
000003c0: 2246 fcbd 118b e73d d9e3 673d 0634 1bbc
000003d0: d902 c53c e5b3 493d 7d11 9ebd 5159 30bd
000003e0: 0939 273d 4e80 34bd 519e 353d 5a65 943d
000003f0: ed7e 67bd 01b6 24bc 80b7 8abd fa63 ef3c
-0.05427871 0.026284577 -0.03353634 -0.02152385 -0.006466405 -0.02340826 0.016526427 0.017766362
0.03221607 0.01750959 -0.006054224 0.026784005 0.019032484 0.0091162445 0.010927341 0.013465972
0.018018523 -0.046092466 -0.00997599 0.031627342 0.0078013176 -0.008603825 0.042076934 0.033812337
-0.010037004 0.0037078573 0.001699003 0.03240755 -0.027934743 -0.00800239 -0.059364714 -0.008157149
0.04215989 -0.038667206 0.02313033 -0.029545272 0.010139139 -0.004713816 -0.016336512 -0.0034801052
0.10877001 -0.011725748 0.010177189 0.002379703 0.006153519 -0.07487964 0.012009623 0.038568117
0.02995188 -0.03255266 -0.07654128 -0.017616425 0.06664881 -0.023527538 -0.034419756 0.05009004
0.00518906 0.03641489 -0.037408184 0.032008026 -0.02146035 -0.04758068 0.049331233 0.032925684
-0.09780279 0.020488176 -0.013686712 0.04672766 -0.0016487204 0.032026853 -0.004815988 -0.033458903
-0.00068781676 -0.010928073 0.04220775 0.008304971 -0.0031613898 -0.03710955 -0.010857296 -0.007386461
0.0456075 0.027792115 -0.021590332 -0.012005171 0.02474419 -0.007881072 -0.075857475 0.01207604
-0.014693864 -0.009363709 0.111956365 -0.03175449 -0.038948722 -0.002635893 -0.036953893 -0.0031658765
0.055577364 -0.08637658 0.015710374 0.09141008 -0.0018294523 0.0668083 -0.020177912 0.009404579
0.022196604 0.0004620913 -0.009551241 -0.025181085 -0.05329032 0.0071089147 0.037432007 -0.00897151
-0.061772052 0.0054308483 0.0075446344 0.018292569 -0.035998274 0.00560478 0.03541636 -0.009007241
0.003051748 -0.0065268725 0.003727897 0.010441609 0.043450575 -0.053098153 -0.035703342 0.011011362
-0.009811168 -0.02566111 0.07459837 0.024053281 -0.07604521 -0.055678293 0.07960545 0.025333764
-0.054245435 -0.0071210884 0.022736518 -0.050237592 0.015544466 -0.024993056 -0.083016746 0.010397528
0.032387972 -0.010162392 0.05502701 -0.022433395 -0.07298644 0.087483086 -0.016984547 0.0068735457
0.032110684 -0.022446964 -0.065070204 -0.08138591 -0.038821902 0.04911246 0.023273138 -0.036483232
0.10603839 0.064752355 -0.025252448 0.0034307954 -0.0901923 0.07429885 0.042405177 0.06535489
-0.12024049 -0.0669858 -0.065704 0.01362898 -0.06613134 -0.06153023 0.036060564 -0.005454066
-0.059931617 -0.032472607 0.19776207 0.04220107 -0.02809351 0.043481585 0.04317532 -0.0808642
0.017471738 -0.021328257 -0.032733742 0.007482676 -0.03063214 0.060646232 0.068708606 0.026888566
-0.019651886 0.014342421 0.042363886 -0.034906585 -0.024854705 0.0077806446 0.006296526 0.2371596
-0.038373455 0.07177044 -0.029682847 -0.08103293 0.00047493353 0.023849867 -0.00083637686 0.0904513
-0.03790353 -0.038486496 -0.0728908 0.03864492 0.020548632 -0.033634365 -0.027650991 0.0010967163
-0.112150155 -0.0018720801 -0.18521403 0.10350511 0.0435572 0.039612137 0.035368018 -0.029621689
0.0067790193 -0.057289906 0.062957354 -0.10560138 0.08614815 -0.028871896 0.038361248 0.020401865
0.08904051 0.039743677 0.071920015 -0.0035024597 -0.082430586 0.035450432 -0.0038121804 0.0051441025
-0.12318064 0.11305822 0.056613777 -0.009472853 0.02404921 0.049243826 -0.077181794 -0.04305393
0.040825877 -0.044067673 0.044340435 0.07245894 -0.05651753 -0.010053159 -0.06773281 0.029222477

network_body.linear_encoder.seq_layers.0.bias f4 [128]
00000000: 5f11 a03d ce33 063d 3e0b b4bb 6198 6bbc
00000010: 0168 493d 1d95 cd3c fbd3 af3d 5475 94bc
00000020: 8f86 af3c eca2 293d 88dd 4cbb 5318 cc3c
00000030: e3a0 8b3b 93d2 2fbd 3ccc 6ebd eb23 fabc
00000040: bc45 b43c f6a4 9b3c f759 fe3c 79db 96bc
00000050: 0154 3c3d 2932 f43c 8376 e73b 25a0 573c
00000060: 1ae5 5b3c 2a1a 263d 30c8 debc d65d a43c
00000070: 1c67 443d be01 343d c806 9cbc 4e16 ba3b
00000080: e0e6 203c 8c8d 203d de77 2f3d bfdf 0e3c
00000090: 7e7b fd3c 1036 76bc 463e 9cbb 9949 0bbb
000000a0: 47e3 9b3b 289f 493c ffe3 d1ba 4fba 83bd
000000b0: c4f7 afbc 5724 a13d f8aa ae3d 8d1f 33bc
000000c0: 1099 0bbb d061 bebb 481a eb3c c41e fdbc
000000d0: e6c0 a2bc 8888 9c3d 2226 283d 799f ae3c
000000e0: 08f9 3f3d 5cfe c73b 8f9f 903d 7cee 8dbc
000000f0: 5baf 10bc 5bf2 b5bc 1b2d 3a3d e003 423d
00000100: 0b29 e2bc dbcb 863d 4e9a b03c 258e 3d3d
00000110: 3254 c8bc e0a1 a43b c79c 63bd d914 4fbc
00000120: f939 253c 85ee 36bc 5a34 28bd 0fd0 b8bd
00000130: 7074 b33d c1e4 49bd c6aa 053e 27cb 9aba
00000140: 09cf 2d3d 7e56 883b 9341 083d fd97 0bbd
00000150: 46a3 12bd f4d0 b1bc 57ec 5c3c b0a9 87bc
00000160: efa5 9c3b 3ef2 37bd 9584 d2bc 4c3d 8c3d
00000170: 3b1a 833c b986 403b 382c 453d 479c 4fbc
00000180: 5492 013d 911a 423c baf9 093d b8e6 60bd
00000190: de1b c2bc 4403 3e3d 0207 0f3d 65f8 6a3d
000001a0: 7d5e c438 be04 33bb 8d33 ac3d ac71 4f3c
000001b0: 3c0a 9abc 3fe1 0cbd c921 07bd 6bf6 3f3d
000001c0: 1f61 843a 1c77 f33c 2d6b 03bd 929c 803c
000001d0: b81a 8b3c eaaa cc3c 905c 273c 17ea 723d
000001e0: 358e 143d 35b1 a83d b962 a83b 41e0 dbbc
000001f0: 5d66 073d 644e 31bd 3458 d23c 4f85 83bd
0.07815813 0.03276425 -0.0054945042 -0.014379592 0.04917145 0.025095517 0.08585354 -0.018122353
0.021426467 0.04141514 -0.0031259973 0.024913942 0.0042611226 -0.04292543 -0.05830024 -0.030534705
0.022005908 0.018999558 0.031048758 -0.0184152 0.04597855 0.029809074 0.0070636882 0.01316074
0.013421321 0.040552296 -0.027195066 0.020064276 0.047949895 0.043946974 -0.019046202 0.0056789285
0.00982067 0.03919749 0.042838924 0.008720337 0.030942675 -0.015027538 -0.0047681658 -0.0021253584
0.004757318 0.012306012 -0.0016013383 -0.0643202 -0.021480449 0.078682594 0.085287035 -0.010932815
-0.002130095 -0.00581 0.028699055 -0.03089846 -0.019867372 0.07643229 0.04105199 0.021316277
0.046868354 0.00610332 0.070616834 -0.017325632 -0.0088308705 -0.02221029 0.045453172 0.047366977
-0.027607461 0.06581851 0.021557953 0.046278138 -0.02445421 0.00502418 -0.055569436 -0.012639248
0.010084623 -0.011165266 -0.04106555 -0.09024059 0.08762443 -0.049290422 0.13053426 -0.0011809812
0.042433772 0.0041607013 0.03326566 -0.034080494 -0.03580024 -0.021706082 0.013484082 -0.016560405
0.004780523 -0.044908755 -0.025697986 0.06847629 0.016003719 0.0029377176 0.048137873 -0.012671537
0.03163369 0.011847154 0.033685423 -0.05490753 -0.023694929 0.046389833 0.034918793 0.057365794
9.363608e-05 -0.002731606 0.0840827 0.012661379 -0.018803708 -0.0343945 -0.032991204 0.046865862
0.0010099745 0.029719882 -0.032084633 0.015699659 0.016980514 0.024983842 0.01021494 0.059305277
0.03626843 0.082369246 0.005138722 -0.026840331 0.033056606 -0.04328765 0.025676824 -0.06421911

network_body.linear_encoder.seq_layers.0.weight f4 [128, 113]
00000000: 1208 c43c bcb2 95be 9b1c bf3e 68e8 2dbe
00000010: 8be0 bfbc 2b4a 013e afc6 1d3b df2f 043e
00000020: 852e 943c 9d9c a63b b24f 843d 50fd c83c
00000030: 787e 543e bfbd 70bc 3d0b 27be a9ba 783d
00000040: 3470 8e3d 71a9 e63d 8a40 c63d 96a6 533c
00000050: 80b9 613e 212a 08bd 1b67 373e 9459 0b3e
00000060: 2712 583d a8c9 ca3d cb42 bdbd 6fa1 393b
00000070: d495 07be e821 653d 4b17 f13d 6ecd 22be
00000080: 3329 6b3e c809 9e3c 304e 0f3e 0763 0f3e
00000090: 7c0b 353e 3dda 173e 348e 313e 2f58 39be
000000a0: 04ec b2bd 219a c2bd 3ccd aabc 87ea 8a3e
000000b0: d3b4 88be d718 a73d e603 09be cb2e 243e
000000c0: e903 113e e70d 1a3e 3f04 dbbe 69f7 e03c
000000d0: 8c3a ae3d 3115 2e3c a515 623d 33c0 803c
000000e0: f12b d2bc 83bd 503d d192 15be f72f 743d
000000f0: c983 e1bb d4b7 f53c 966c b03e 58bc c8bd
00000100: 7297 a53d 17a2 cc3b bf7e 99bd 4cd2 8bbd
00000110: 3eb6 a8bd 36a1 9d3d 1603 77bd a85f 993c
00000120: edd4 80bc a169 333c 0657 6e3d 0f1d b9bd
00000130: 2edc a7bd 70c3 d83d a166 1e3e 6df3 223e
00000140: 547c 273e cbc4 b5bd ae37 353d 02b1 bf3d
00000150: e928 013e 47b3 0a3e f5d4 a0bb 3daf db3d
00000160: 4813 bcbc 526e c4bd 70e6 b03d c0ee b0bb
00000170: 524c 8d3d 3aae d9bd b242 fe3b 580c 453e
00000180: 1f65 b13d b4ac 7c3b 077d 093e 6d50 6dbd
00000190: 23d3 afbc 6782 36bd aaa2 0939 5140 6e3d
000001a0: 5c09 42bd 4488 d5bc 95a1 373d 90d4 dcbc
000001b0: 486c a33d 2037 703c 7d78 75bd b1f5 8dbc
000001c0: c867 0cbe 13f3 34bd df63 e83e ab6c 12bf
000001d0: 38f4 a73d 372c 273e ec31 573c 8db8 0bbd
000001e0: 3922 92bd 3b05 353e 137c 133d f60a 633d
000001f0: 5e9e 3a3e 233c 193e a298 a2bd 9668 153e
00000200: 9fd4 d1bd 20ef 2e3d 973e d6bb cd12 21bd
00000210: b073 9f3d 5a80 9a3d a638 9f3d ca00 413d
00000220: 3972 5ebb be0f 153e 3953 1ebe 0a66 0c3e
00000230: edb5 553d f823 bf3c 14e1 233e 00bd 2b3e
00000240: fddc 4abd 6177 a93d c2cd 63bd 446f 0ebb
00000250: 739b 00bd ef73 59bd 5f62 013e a272 4e3d
00000260: 42c1 2d3e f926 61bd ac34 363e 70bb f63d
00000270: 9727 ba3d c41f 1bbe 290b 7cbd 778b 793e
00000280: 0f4e d2bc 1d69 b83d b6b3 41bc 5c4d 8bbe
00000290: ce4e b8bd 3c58 80bd 5451 5c3d 34e9 cd3c
000002a0: e762 d83e 6f6a 28bf 8b4b 973d 706b c2bd
000002b0: d702 c13d 3c96 233c de52 2f3c d4af 0a3e
000002c0: 5489 2d3c 9867 85bd 948a 283d 8873 30bd
000002d0: a39b b13c 05f9 a23e 83db 763d 70ac ce3d
000002e0: 5cca 583e a60c 483d 9fcc ebbd 555b 0b3e
000002f0: bbd2 a2bd 9f16 29bd 9f16 b13d 8d62 ffbb
00000300: d8fa 653c 3bec b33c 9a17 c13d 82df 173e
00000310: 3f22 c0bd 9286 02be 9d05 a43d ba04 2ebc
00000320: ec47 843d d767 963c 1168 15bc b65d dc3c
00000330: 557c 133d a83e d6bd 36e3 c3bd cedf dcbd
00000340: c191 473d 4511 453e 145f 9d3b fcf5 00bd
00000350: 7ba2 dc3d 5c4c 713d 242f 1e3e e8a0 703d
00000360: 0f5f 74bd 875e 0bba 2942 d43d 7b61 7e3d
00000370: 7e62 3ebd 290e 713e 40fc 01be f625 39bd
00000380: 9368 703d e8ff 0c3e 709f 22bd 7d76 7fbe
00000390: 39a3 163f 53a8 8cbe 5c20 7ebe 8078 0b3e
000003a0: 52bf 14be 14c7 83be 365d 783d e6f9 b03d
000003b0: 9337 473c e2c6 c4bd 3038 c43c 6b11 68bc
000003c0: 8ecd 15bc d96d 16bd 8b06 203e 9c37 4dbb
000003d0: d40b 793d c4c8 08be 51e6 393b da8a 333b
000003e0: 8515 2f3e f472 70bd 1055 15be 66b9 083e
000003f0: 0786 30be 0436 62bb dec5 4abd 7e3a 3d3d
0.02392963 -0.29237926 0.37326512 -0.16983187 -0.0234225 0.12625949 0.0024074723 0.12908886
0.018088588 0.0050845877 0.06460513 0.024534851 0.20751369 -0.0146936765 -0.16312881 0.060724888
0.06954995 0.11262787 0.096802786 0.012918135 0.22043419 -0.033243302 0.17910425 0.1360839
0.052751686 0.09901744 -0.092412554 0.0028324982 -0.13240749 0.05594054 0.11772021 -0.15898678
0.22964935 0.019291773 0.1399467 0.1400262 0.17680162 0.14829345 0.17339402 -0.18100046
-0.08736423 -0.09502054 -0.020849817 0.27132055 -0.26700458 0.08159035 -0.13380393 0.16033475
0.14161648 0.15044366 -0.42776677 0.027461724 0.08507261 0.01062517 0.055196423 0.015716648
-0.025655719 0.050961982 -0.14606787 0.059616055 -0.006882165 0.029994883 0.34457844 -0.09801549
0.080855265 0.0062449086 -0.07494878 -0.0682722 -0.08237885 0.07696764 -0.060305677 0.01872237
-0.01572653 0.010950477 0.05818846 -0.090387456 -0.08196293 0.10584152 0.15468837 0.15913172
0.16356021 -0.08875426 0.044242553 0.093599334 0.12613262 0.13544951 -0.004908199 0.107267834
-0.022958413 -0.095913544 0.086377025 -0.005399555 0.068993226 -0.10628934 0.0077594155 0.1924299
0.086618654 0.0038555088 0.134266 -0.057938028 -0.021462983 -0.044557955 0.00013125935 0.058166806
-0.047372207 -0.026065953 0.04483183 -0.026956826 0.079796374 0.01466158 -0.05992936 -0.017329069
-0.13711464 -0.044177126 0.45388696 -0.57197064 0.08200878 0.1632546 0.013134461 -0.03411155
-0.07135434 0.17677777 0.036007 0.055430375 0.18224475 0.14964347 -0.07939269 0.14590678
-0.102456324 0.042708516 -0.006538223 -0.03932457 0.077857375 0.07544012 0.07774477 0.047119893
-0.0033942594 0.14556786 -0.15461434 0.137108 0.05217545 0.02333258 0.16003829 0.16771317
-0.049527157 0.08274723 -0.055616148 -0.00217338 -0.031398248 -0.05308908 0.12635182 0.05040229
0.16968253 -0.054968808 0.1779353 0.120474696 0.090895824 -0.15148836 -0.06153408 0.24369608
-0.025671987 0.09004424 -0.011822632 -0.27207458 -0.08999406 -0.06266829 0.053788498 0.025135614
0.42262957 -0.65787405 0.073874556 -0.09493148 0.0942437 0.009984549 0.010700909 0.13543636
0.010591824 -0.065138996 0.041147783 -0.04307893 0.021680659 0.31830612 0.060267936 0.100914836
0.21170944 0.048840187 -0.11513638 0.13609059 -0.0795035 -0.04128134 0.08646893 -0.0077937306
0.014036857 0.02196323 0.0942833 0.14831355 -0.09381532 -0.12746647 0.08008883 -0.010621244
0.064590305 0.018360062 -0.00911905 0.026900154 0.036007244 -0.104611695 -0.095648214 -0.10784875
0.048722986 0.19244869 0.004802594 -0.03148459 0.10773178 0.058910713 0.1544767 0.058747202
-0.059660967 -0.0005316515 0.103641815 0.062104683 -0.04648065 0.23540558 -0.12693882 -0.045202218
0.05869348 0.13769495 -0.039702833 -0.24947543 0.5884281 -0.2747217 -0.24817032 0.13620186
-0.14526108 -0.25737822 0.060635768 0.08641414 0.012159246 -0.096082464 0.023952574 -0.014164309
-0.009143246 -0.036725853 0.15627496 -0.0031313663 0.060802296 -0.13357836 0.002836604 0.0027395994
0.17098053 -0.058703378 -0.1458323 0.13351974 -0.17238627 -0.003451706 -0.049505107 0.04619836

network_body.linear_encoder.seq_layers.2.bias f4 [128]
00000000: 2292 0f3d 0be3 9fbb 086c 7e3c 9f87 1dbd
00000010: 565e 0f3c d557 8e3b 19b2 253d 2db9 d23a
00000020: 3f56 c23c 79d7 833c 7bc5 c2bc fa84 753c
00000030: 68a4 12bd 91d5 da3b 5d22 a13c 8aeb 0eb8
00000040: 5c66 483c afb5 1e3d 22e0 1bbc 60b4 ec3b
00000050: 7ec3 813d 2a22 f33c e632 13bb e0f9 eebb
00000060: de9f 4d3c 8d96 15bc 2914 a13c a401 f93b
00000070: abe8 b33c 097e 84bc 16d5 3f3d 96bc 3b3c
00000080: 9020 46bc efb8 363c fe61 d53c 6a3c c73c
00000090: 2dd5 613c db82 e3bb c3c2 94bc 98af 31bc
000000a0: bd6c c4bc c7d5 053d 391e 1d3d e4b0 0bbd
000000b0: d572 91bb f067 2b3d 3547 efbb 1a2b bf3c
000000c0: 47cb 85bd d313 363c b657 b03c d4a8 38bc
000000d0: 3f40 d53c aac3 ce3b 6f95 0e3d c55a bf3c
000000e0: d6c8 213c 3acd 2cbb 7240 223d 4c5f 35ba
000000f0: 7750 233c 9641 743c f606 5d3c 335f dd39
00000100: 70b9 093d ddf8 04bc 64c0 963c 257b 773c
00000110: 37ac 6f3c d4c2 fbbc 0952 11bc 6494 ab3b
00000120: a2b7 063d edd0 df3c 96ec d3bc cb18 863b
00000130: 2500 92bc d328 4a3c 6dd0 873c d310 103d
00000140: 8b55 a63b 9c34 d13c 3e5c a63c 6d2b cf3a
00000150: d075 09bd 9874 95bb bfd9 083c 1256 e2bc
00000160: 8791 f43c 4285 cfbc dbc5 0ebd da8a 203c
00000170: d561 613d 9b2c 3e3c b927 e63c 972d 323c
00000180: c602 4fbd 95a4 593d 16e1 363d 2879 3abd
00000190: 7b6d 883c 01c8 23bd 219e 133d 1629 8c3c
000001a0: 80a2 6d3b 151d 21bc 23ec 2d3c 696d a5bc
000001b0: 6557 283d 908f 0cbd 810f e2bb c8b6 063b
000001c0: 82c3 813d f271 003c 33ee 9bbc 58ce 1fbd
000001d0: aa9f 6c3c 7386 f2b9 043e 243c 12ee 113d
000001e0: c56e 0f3d 0da3 53ba 00b7 98bc 4587 4a3c
000001f0: 00d0 913c 478d 3f3c f450 0d3d e316 5b3d
0.035051472 -0.0048793606 0.015528686 -0.038459416 0.008750519 0.0043439665 0.04045305 0.0016076915
0.023722766 0.016093956 -0.023775807 0.014985317 -0.03580132 0.006678291 0.019669706 -3.40748e-05
0.012231436 0.038747486 -0.009513887 0.007223651 0.06336115 0.029679377 -0.0022460758 -0.007292971
0.012550322 -0.009130132 0.019662933 0.0075990725 0.02196153 -0.01617338 0.046834074 0.011458537
-0.012092724 0.01115249 0.026047703 0.0243208 0.013783735 -0.0069430894 -0.018159276 -0.0108450875
-0.023977632 0.032674577 0.0383589 -0.034104243 -0.004438738 0.04184717 -0.0073021897 0.023335982
-0.06532913 0.011113125 0.021526199 -0.0112707205 0.026031611 0.006309946 0.03481048 0.023358712
0.009874543 -0.0026367442 0.03961224 -0.00069188024 0.009967915 0.014908215 0.013490429 0.00042223334
0.033624113 -0.008115974 0.018402286 0.015105044 0.014628462 -0.03073255 -0.008869656 0.0052361954
0.03288997 0.027321303 -0.025869649 0.004092311 -0.017822335 0.012338835 0.016578877 0.035172295
0.0050761155 0.025537781 0.020307656 0.0015805789 -0.03355962 -0.004561018 0.008352696 -0.027628932
0.02985455 -0.025332097 -0.03485666 0.00979873 0.05502494 0.011607314 0.028095113 0.010875127
-0.050539754 0.053135473 0.044648252 -0.0455257 0.016653767 -0.03998566 0.036039475 0.017109435
0.0036260188 -0.009833594 0.010615381 -0.020193772 0.04109897 -0.0343166 -0.006898821 0.0020555723
0.06336118 0.007839667 -0.01903448 -0.039015144 0.014442364 -0.0004625801 0.010024551 0.035627432
0.035017747 -0.00080733077 -0.018641949 0.012361352 0.017799377 0.011691398 0.03450103 0.053488623

network_body.linear_encoder.seq_layers.2.weight f4 [128, 128]
00000000: 64fc 7a3e 2fd6 b33c ce8e 6ebb 648b 5fbd
00000010: 33fa ff3d 50d5 5ebe 7c4f b9bd 4eac 163a
00000020: be7c 073d 5541 d5bd d883 2e3b 9c42 cf3d
00000030: c561 22be 24b7 ac3d f58b da3b c7eb 9d3d
00000040: bd30 debd a0b5 d8bb bd94 df3c e073 a6bc
00000050: 909b 08bc c585 b63d 4b57 243d 5c5b 29bd
00000060: 06e5 0f3e 4c02 98bd 6253 61bd c9b9 babc
00000070: 2fd1 483d b14f 1cbd 7c1b 13be c4fc 00bb
00000080: fc26 393e a9e1 7cbd 87c7 bcbd ec57 16bc
00000090: e464 1c3e 7dbf 923c 18dc 9fbd fffa 5c3d
000000a0: 33bf 5ebc 5cae 61bd 20ba e13c 37a0 1dbe
000000b0: 9102 013e 2e2f 98be 3f20 a8bd 34bd 143e
000000c0: f38d 583c d1c8 96bd 2adb 90ba 3d8b c9bd
000000d0: 53e3 82bd 59d0 c33c 9ef5 e53d 52df 0ebd
000000e0: 74e8 a2bd 0a6f 133e e6f8 203e c333 0f3d
000000f0: 7ccb d1bd 8e20 1abe 8164 0cbe 4e90 2939
00000100: 5e64 ed3d afd4 1c3e e028 e73d 5ea7 94bd
00000110: c4d5 8fbd 636e c63d e1f2 803d ad57 1a3e
00000120: a587 783e fe2c 86bd 55d2 fdbd 6b17 ebbd
00000130: acc1 523e 2c5a 8dbd 443a bc3e 878f d7bd
00000140: 0e1d 95bd 4cec 8fbd 6268 7c3d 5434 efbd
00000150: ab7c 53bc f0a8 a8bc e83d b7bd 65e2 7fbd
00000160: 307a 3d3c 0f18 643d fe45 f5bd a48d 7c3e
00000170: 4509 043d a56d cebd 4216 cf3d 3f81 a03d
00000180: b4e0 4bbe 6d8e 7cbd 9d21 103d 544e 423e
00000190: 0794 2b3d ef86 803c 3fb8 0d3e 7096 b5bd
000001a0: 1031 c0bd 0186 d03d fd00 11be bce2 083d
000001b0: 9fe9 b63d 3b00 273d f958 a23d 0690 0d3e
000001c0: 63ab 163d cffa afbc a93c 49bd f7be f5bc
000001d0: da1c 50bd f2a0 8c3d 03c1 fd3c 9bdb eebc
000001e0: 40f3 35bd 1bd7 e63d e827 3abe 8a33 623d
000001f0: db2b 143d c8d9 a3bd 6db2 10be 8780 43bd
00000200: a202 2d3e 5155 8dbd 63b7 c3bd f391 2c3e
00000210: 26d4 00be ceb5 2fbe 9aae a93d 4335 03bc
00000220: 76b1 79bd 45f0 1dbe 041b a0bd fed0 20be
00000230: a6c4 b1bd 860f cfbd deb1 06be 785a dcbd
00000240: 4e26 823d 70b6 d63d bde1 cebb 85e1 57be
00000250: 9beb 0a3d 623e 31be 1a02 0dbe 65bc 86bd
00000260: e63f 5e3d 4bd8 08ba 8a06 debd 7377 f7bd
00000270: f414 bbbd 1033 023d dfda dbbd f2bb f73c
00000280: 15df 1ebd dcbb c43d 5a24 93bd e5e1 49bc
00000290: a7f7 393c 560d c2bc cb18 15bc 4ff1 413e
000002a0: 5758 773d e683 d0bd 16d5 b83d 8449 d73b
000002b0: f2e4 07bd f581 aabd 7c36 c4bb 0b5b bfbd
000002c0: 5d26 a53d 7d8a 88bd 2ed0 9a3d 4cd0 843d
000002d0: 1604 2ebd 266d bebc 2436 bb3d 6fde 9dbd
000002e0: 5785 0a3e 2e0a abbd 9adc bfbd 3375 11be
000002f0: b7a9 56bd 2299 0cbe 76d4 39bc 7d71 813d
00000300: 82b5 563c 313e 40be be8f 4a3d 1108 9c3b
00000310: 52e7 0b3b d0cd 14bd 4a67 133c 3b93 b9bd
00000320: a87f 83bd c1c1 983c 9a1e 9f3d a1c2 53bd
00000330: 8681 9f3c 8a5d abbd c580 813b b152 123a
00000340: eec7 c2bc 1f61 a7bc 113d 29be e52d 6cba
00000350: 480c 23bd dd8a 133e 6e5f 813d dfc7 9b3d
00000360: dee9 04be 1fd5 73bd b94b 2abd b4d6 0dbe
00000370: e413 0d3d 5356 493d 56bc c7bc 471e 05bd
00000380: e9d1 90bd fa4e 663d a641 023e e047 9e3d
00000390: a6e5 16be 0120 c3bc 26ee 7b3d d258 203e
000003a0: 8d74 563b 24f5 d8bd d6f9 9c3d e3b2 f2bc
000003b0: 4bb5 4fbe ed23 8dbc 92f9 c9bc 4204 9a3a
000003c0: 615f 9ebd b0ea 1d3d 4d17 03be ffbf c8bd
000003d0: 0c2e 003e a8b4 a7bd ac40 5d3d 318e ce3d
000003e0: 437b 48bc cb1f 1cbe c384 b03a 2b09 52bd
000003f0: 4774 8d3d e2c7 11be 1753 293d b272 c8b9
0.24510342 0.021952717 -0.0036401036 -0.054576293 0.124988936 -0.2176106 -0.090483636 0.00057477213
0.033077948 -0.10412852 0.0026628878 0.101201266 -0.15857609 0.08433369 0.006669516 0.077109866
-0.1084914 -0.0066134483 0.027292604 -0.020318925 -0.00833787 0.08912233 0.04012231 -0.041346893
0.1405221 -0.07422313 -0.05501116 -0.022793667 0.049027618 -0.038161937 -0.14365953 -0.001968191
0.18081278 -0.061738644 -0.09217744 -0.009176236 0.15272862 0.017913574 -0.078056514 0.053950306
-0.01359539 -0.055097923 0.027554572 -0.15393148 0.12598635 -0.29723495 -0.082092755 0.145253
0.013217437 -0.073625214 -0.0011051644 -0.09841011 -0.06391015 0.023903059 0.112284884 -0.034880944
-0.07954493 0.14397827 0.15719947 0.034961473 -0.1024389 -0.15051481 -0.13710214 0.00016170854
0.11591409 0.15315507 0.11287093 -0.07258485 -0.070231944 0.09689023 0.062963255 0.15072508
0.24270494 -0.0655155 -0.12393633 -0.11479076 0.20581692 -0.069019645 0.36763203 -0.105254225
-0.07280932 -0.07027492 0.061622985 -0.11679903 -0.012908141 -0.020588368 -0.089473546 -0.062471766
0.011564776 0.055687007 -0.119762406 0.24663407 0.032235403 -0.10079507 0.10111667 0.07837152
-0.19909936 -0.061659265 0.035188306 0.18975192 0.041889217 0.015689341 0.13839816 -0.08866584
-0.09384358 0.10181809 -0.14160533 0.033419356 0.089312784 0.040771704 0.079271264 0.13824472
0.03678454 -0.0214819 -0.049130116 -0.029998286 -0.050808765 0.068666354 0.030975824 -0.02915745
-0.044421434 0.11271497 -0.18179286 0.055224933 0.036174636 -0.08000523 -0.14130564 -0.047729995
0.16895536 -0.069010384 -0.095564626 0.1685255 -0.12580928 -0.17159197 0.08285256 -0.008008304
-0.060960256 -0.15423687 -0.07817653 -0.15704724 -0.08680086 -0.10110383 -0.13153788 -0.10759443
0.06354962 0.10484016 -0.006313531 -0.21082123 0.033916097 -0.17308953 -0.13770333 -0.06578902
0.054260157 -0.00052202184 -0.10841091 -0.1208333 -0.09134856 0.03178698 -0.10735106 0.030240986
-0.038786966 0.09606144 -0.07184668 -0.012321924 0.011350549 -0.023688 -0.009100149 0.18939708
0.06038698 -0.10181408 0.09025018 0.006570043 -0.033177324 -0.083255686 -0.0059879404 -0.09343537
0.08063958 -0.066670395 0.075592384 0.06485042 -0.042484365 -0.023245405 0.09141186 -0.077084415
0.13527428 -0.08351551 -0.09368248 -0.14204864 -0.052407946 -0.1373029 -0.011342159 0.06320474
0.013104798 -0.18773724 0.04945349 0.004761704 0.0021347594 -0.03632909 0.008996794 -0.09061285
-0.06420833 0.018647077 0.07769509 -0.051699284 0.019470941 -0.083674505 0.003952118 0.000558178
-0.023776975 -0.020432053 -0.16527201 -0.00090095244 -0.039806634 0.14408441 0.0631703 0.07606482
-0.12979838 -0.05952942 -0.04157612 -0.13851434 0.034442797 0.04915459 -0.024381798 -0.032499578
-0.07071287 0.05622766 0.12720355 0.07728553 -0.14736041 -0.023818972 0.061506413 0.15658882
0.0032723278 -0.10593632 0.0766484 -0.029626315 -0.20284002 -0.017229045 -0.024655137 0.0011750537
-0.07733036 0.038553894 -0.12801857 -0.09802245 0.12517565 -0.08188754 0.054016754 0.100857146
-0.012236419 -0.15246503 0.00134673 -0.051278275 0.06906944 -0.14236405 0.041339006 -0.00038232427
