Assets/CarBehavior.onnx (onnx, 143268 bytes, 6 tensors)

action_model._discrete_distribution.branches.0.bias f4 [4]
0	0xbc6bdd8e	-0.0143960845
1	0xbda82768	-0.08210641
2	0x3addc0ce	0.0016918422
3	0x3dba539d	0.09097979

action_model._discrete_distribution.branches.0.weight f4 [4, 128]
0	0xbca70e22	-0.020392481
1	0xbd287362	-0.041125663
2	0xbe9bb5b7	-0.30412075
3	0x3e505cc5	0.20347889
4	0x3d2d229e	0.04226934
5	0xbd6ddd50	-0.05807239
6	0xbceccd2e	-0.028906431
7	0x3ce8e9cb	0.028431794
8	0xbddcc941	-0.10780574
9	0x3dc00ced	0.093774654
10	0x3e2b3264	0.16718441
11	0xbe77efbb	-0.24212544
12	0x3e1daf86	0.15398988
13	0xbd324d2e	-0.043530636
14	0xbc8c02aa	-0.017091114
15	0xbd0b3337	-0.03398439
16	0xbe1500dc	-0.14551109
17	0xbe3b805e	-0.18310687
18	0xbd93a24e	-0.072086915
19	0x3e166036	0.14685139
20	0x3e4fc864	0.20291287
21	0xbe0f714f	-0.14008068
22	0xbc907253	-0.017632639
23	0xbc2cd341	-0.010548414
24	0x3e034ea8	0.12822974
25	0xbe9bd835	-0.3043839
26	0x3dd05281	0.10171986
27	0xbe38b3da	-0.18037358
28	0x3cbf34c3	0.023340588
29	0x3e21feff	0.1581993
30	0xbdb8c241	-0.09021426
31	0x3db5ca6e	0.08876501
32	0xbd55be07	-0.052183177
33	0x3de29b4f	0.11064779
34	0xbe57312c	-0.21014851
35	0x3da8dac2	0.0824485
36	0xbe093a14	-0.13401061
37	0xbb966278	-0.004589375
38	0x3c6b7321	0.014370711
39	0x3d0ca26e	0.034334593
40	0x3da8e123	0.082460664
41	0x3e3c2d18	0.18376577
42	0xbd4380d9	-0.0477303
43	0x3ca1258f	0.01967123
44	0xbc984ebe	-0.018592235
45	0x3cad2314	0.02113489
46	0xbc4dc1da	-0.012558425
47	0x3d192365	0.03738727
48	0x3dff53ce	0.12467156
49	0xbdcc0020	-0.09960961
50	0x3e090596	0.13381037
51	0x3df9d017	0.12197893
52	0x3d0b2ca2	0.033978112
53	0xbd97035e	-0.07373689
54	0x3e609d21	0.2193494
55	0xbe649d67	-0.22325669
56	0xbda92ce4	-0.08260515
57	0x3dc87cd1	0.09789432
58	0xbde9649a	-0.11396141
59	0x3dfc6e76	0.12325756
60	0xbe6cd297	-0.23127209
61	0xbdc5aa15	-0.09651581
62	0xbdc2c896	-0.09510915
63	0xbdbc97c2	-0.09208633
64	0x3e1f6e2e	0.15569374
65	0xbe14989f	-0.14511345
66	0xbe88b48d	-0.2670025
67	0x3df1f967	0.11815148
68	0x3e372a46	0.1788722
69	0xbe53d9de	-0.20688578
70	0xbe0f0dbc	-0.13970083
71	0x3e1b1765	0.15145643
72	0xbe64bb65	-0.2233711
73	0xbe00533f	-0.12531756
74	0xbe5e5777	-0.21713053
75	0xbe25185e	-0.16122577
76	0xbcdd792d	-0.02703532
77	0xbe16be8c	-0.14721125
78	0x3d8f249b	0.06989404
79	0x3e111a26	0.14170131
80	0xbe3520a4	-0.17688233
81	0x3d0907f7	0.03345486
82	0xbd36dd52	-0.04464466
83	0xbd62c85d	-0.055366863
84	0xbe824326	-0.25441855
85	0x3e00e2aa	0.12586465
86	0x3c422d45	0.011851613
87	0xbe87c786	-0.26519412
88	0xbe1add93	-0.15123586
89	0x3bf93f94	0.007606456
90	0xbe5ef6de	-0.2177386
91	0xbe34228b	-0.17591302
92	0xbddeb180	-0.10873699
93	0x3cada07b	0.021194687
94	0xbe41cce7	-0.1892582
95	0x3db37456	0.08762424
96	0x3e0064d2	0.1253846
97	0xbe6c0b25	-0.23051126
98	0xbd56260b	-0.052282374
99	0xbde176d4	-0.11008993
100	0x3e1a632c	0.15076894
101	0x3e003c4a	0.12522998
102	0x3e0b30b0	0.13592792
103	0x3e407b6f	0.18797086
104	0xbd17ae96	-0.037031732
105	0xbd274053	-0.04083283
106	0xbe65e012	-0.22448757
107	0xbe0a665e	-0.13515612
108	0x3e01bcf7	0.1266974
109	0xbd60e83a	-0.05490897
110	0xbe168455	-0.14698918
111	0x3d94aa17	0.072590046
112	0xbbec3df0	-0.007209532
113	0xbe8403fe	-0.25784296
114	0x3cd0b723	0.025477951
115	0xbea0ec1b	-0.31430134
116	0x3e1feed6	0.15618452
117	0x3e1134b4	0.14180261
118	0xbde5eff0	-0.11227405
119	0x3e403475	0.18770011
120	0x3d5ca27f	0.053865906
121	0x3db53ed7	0.088498764
122	0xbe632698	-0.22182691
123	0x3e6b0b1f	0.22953461
124	0xbdbda2e0	-0.092595816
125	0xbe3e80a9	-0.18603767
126	0xbdaf3f2b	-0.0855697
127	0x3e28fb18	0.16502035
128	0x3d2474f2	0.04015059
129	0xbe28d0c2	-0.16485885
130	0x3ca7c6a4	0.020480461
131	0x3e0b5d1b	0.13609736
132	0x3df30733	0.118666075
133	0x3e642fe6	0.22283897
134	0xbe2c4858	-0.16824472
135	0xbe2c5e32	-0.16832808
136	0xbdb65faf	-0.08904969
137	0x3e231b7e	0.15928456
138	0x3e38df23	0.1805387
139	0x3d44e106	0.04806616
140	0x3e0abba1	0.13548137
141	0x3d548561	0.051885013
142	0x3c770f0a	0.015079269
143	0x3e19bd41	0.15013601
144	0x3e80ea29	0.2517865
145	0xbcf1ad1b	-0.029501488
146	0x3e40c602	0.18825534
147	0x3dfa53b1	0.12222994
148	0xbdc8a857	-0.09797733
149	0x3ee61004	0.44934094
150	0x3deff512	0.11716665
151	0x3e15f1dc	0.14643043
152	0xbd3dd519	-0.046345804
153	0x3d358f2d	0.044325996
154	0x3d507320	0.05089104
155	0x3da31d02	0.07964517
156	0x3d176ed4	0.03697093
157	0x3e380394	0.17970115
158	0x3e365f7d	0.17809863
159	0x3dfc6572	0.12324037
160	0x3cf72db8	0.030173168
161	0x3deb1f9f	0.114806406
162	0x3ec6aa4a	0.38801795
163	0xbc94c14b	-0.018158576
164	0x3e516d4e	0.20451853
165	0x3e89f243	0.26942644
166	0x3cbac8a6	0.022800755
167	0xbe66b5db	-0.2253031
168	0xbe30802f	-0.17236398
169	0xbda2716a	-0.07931788
170	0x3e80b558	0.25138354
171	0x3dbeec48	0.09322411
172	0x3e358a17	0.17728458
173	0x3e4f7655	0.20259984
174	0xbe12f17f	-0.14349936
175	0xbddbe54f	-0.107370965
176	0xbe16dd17	-0.14732777
177	0x3e00a590	0.12563157
178	0x3dbaa5a5	0.091136254
179	0x3dccf2bd	0.10007236
180	0x3e306c05	0.17228706
181	0x3e0254fc	0.12727731
182	0x3e3ffc32	0.18748549
183	0x3eb3ef60	0.35143566
184	0x3e05faa7	0.13083898
185	0xbccfe1b7	-0.025376184
186	0x3ddc0e15	0.107448734
187	0xbe63e938	-0.22256935
188	0x3d8546bf	0.06507634
189	0xbce48c5a	-0.027898956
190	0x3e233cdd	0.15941186
191	0xbd5c812d	-0.05383413
192	0x3e5ae331	0.21375729
193	0x3ecf61bf	0.40504262
194	0x3e17fcb1	0.14842488
195	0xbd05e605	-0.032690067
196	0x3d7e74af	0.062122997
197	0x3e9900ab	0.29883322
198	0xbda89ef4	-0.08233443
199	0x3d8f0fb1	0.06985415
200	0x3d9e4ad8	0.07729119
201	0x3df65a5d	0.12028954
202	0xbace49b2	-0.0015738516
203	0x3def9e6a	0.11700137
204	0x3e6a03e2	0.22853044
205	0xbe4722c2	-0.19446853
206	0x3e3fe161	0.18738319
207	0x3dc923d8	0.0982129
208	0x3de07bbf	0.10961103
209	0x3e69e704	0.22842032
210	0x3e040372	0.1289194
211	0xbd639295	-0.055559713
212	0x3c22a2e7	0.009926534
213	0x3dd7658f	0.10517418
214	0xbe098a25	-0.13431604
215	0xbd89ece8	-0.067346394
216	0x3e10b0e8	0.14129984
217	0x3d85bb8d	0.06529913
218	0x3cc51fd2	0.024063025
219	0x3d18b016	0.037277304
220	0xbd8c0417	-0.068367176
221	0xbd93a526	-0.07209234
222	0x3d8ec6b1	0.06971491
223	0x3df93b1d	0.12169478
224	0x3e820e42	0.25401503
225	0xbbddcb25	-0.0067686015
226	0x3e56f269	0.2099091
227	0x3d8d6cc0	0.06905508
228	0x3d0c64ee	0.03427594
229	0x3d9eb8e6	0.0775011
230	0xbdc9c9f3	-0.09852972
231	0x3df15fb3	0.11785831
232	0xbdb86e3b	-0.090054
233	0x3d514f33	0.05110092
234	0x3ed862a4	0.42262757
235	0xbd91838e	-0.0710517
236	0x3e240046	0.1601573
237	0x3d4d41bc	0.050111517
238	0x3cfb6ba7	0.030690981
239	0x3e7fba74	0.2497347
240	0xbe0478b6	-0.12936673
241	0x3d1aa002	0.03775025
242	0x3e2c62b6	0.1683453
243	0x3e2e9001	0.1704712
244	0xbdb45747	-0.08805709
245	0x3e6b7706	0.22994623
246	0x3b126457	0.002233764
247	0x3e6c94ef	0.23103689
248	0x3e35eb6d	0.17765589
249	0x39c401fe	0.00037385517
250	0x3dcb9f58	0.09942502
251	0x3e919665	0.28435054
252	0xbd3fc573	-0.04681916
253	0x3e282d13	0.16423444
254	0x3d2a2570	0.04153961
255	0xbc701ff8	-0.014656059

network_body.linear_encoder.seq_layers.0.bias f4 [128]
0	0x3c8becf1	0.017080756
1	0x3d090187	0.033448722
2	0x3c17a646	0.009255951
3	0xb8ebd295	-0.00011244897
4	0xbbe356f7	-0.0069378573
5	0x3cacd7b2	0.021098945
6	0x3c104b84	0.008807067
7	0xbdae762f	-0.085186355
8	0xba2110cd	-0.0006144166
9	0x3ce561b3	0.028000688
10	0x3cd91e7f	0.0265038
11	0x3c2a5270	0.010395631
12	0x3c7b7b18	0.015349172
13	0x3d074eb2	0.033034034
14	0xbc553342	-0.013012709
15	0x3d0ac232	0.033876605
16	0x3cba1f97	0.022720141
17	0x3cad14dc	0.02112811
18	0x3d16b9a6	0.036798142
19	0x3cbf5f33	0.023360824
20	0xbccf06ac	-0.025271736
21	0x3da0d6a9	0.07853443
22	0x3d8ae47d	0.06781862
23	0x3d811bab	0.06304105
24	0x3d2a7085	0.041611213
25	0x3b862cb5	0.004094685
26	0xbd6eb4c5	-0.058277864
27	0x3c61a2ac	0.013771694
28	0x3b067f6e	0.0020522731
29	0x3cbf24b7	0.023332937
30	0x3ccce761	0.025012674
31	0x3d8f9aa0	0.07011914
32	0x3cce5f44	0.02519191
33	0xbc4ed71b	-0.012624527
34	0xbbb2278d	-0.0054368437
35	0x3d19acc6	0.037518285
36	0x3ce2de95	0.027694026
37	0xbc794f24	-0.0152166225
38	0xbd6a6fad	-0.05723541
39	0x3d500799	0.050788496
40	0x3b7a211f	0.0038166714
41	0x3d6b5eec	0.05746357
42	0xbd395287	-0.04524472
43	0xbcb48d81	-0.02204013
44	0x3b15fa24	0.002288469
45	0x3d235d55	0.03988393
46	0xbc5dc7c8	-0.013536401
47	0x3b917596	0.004439066
48	0x3c7e8ff5	0.015537252
49	0xbcae46dc	-0.021274023
50	0xbd3e11dc	-0.04640375
51	0x3d4e4e44	0.05036761
52	0xbb9ac55d	-0.0047232346
53	0xbd9be4a6	-0.076119706
54	0x3d0aeece	0.03391915
55	0x3cd28962	0.025700275
56	0xbd512138	-0.05105707
57	0x3d39d2bd	0.04536699
58	0x3aac8a32	0.0013163744
59	0xbb70b550	-0.0036729164
60	0xb9373277	-0.0001747104
61	0x3c94871c	0.018130831
62	0x3ca9ffdb	0.020751884
63	0xbc7f3f8f	-0.015579118
64	0xbd3483ad	-0.04407089
65	0x3d08a685	0.03336193
66	0x3d0744b4	0.033024505
67	0x3d3ae750	0.045630753
68	0xbd643f4e	-0.055724435
69	0x3dcd1f89	0.100157805
70	0x3c4966e2	0.012292596
71	0x3d3df275	0.046373803
72	0x3d06d59a	0.03291855
73	0xbceea113	-0.02912954
74	0x3aed6995	0.0018113131
75	0x3b86876a	0.004105498
76	0x3bfc332f	0.0076965312
77	0xbb22025d	-0.0024720647
78	0x3cf0a8bb	0.029377332
79	0x3d6ae423	0.057346474
80	0x3c5703c0	0.013123453
81	0x3d33fc6b	0.043941896
82	0xbd010e1a	-0.03150759
83	0x3d8fdae6	0.070241734
84	0x3d6dfb6a	0.058101095
85	0xbd1ec052	-0.03875763
86	0xbda4e717	-0.080518894
87	0x3d0503da	0.032474376
88	0xbb217d99	-0.0024641512
89	0x3c38e751	0.011285619
90	0x3decfaae	0.11571251
91	0xbd09f6cf	-0.03368264
92	0xbd668afd	-0.056284893
93	0xbb4d4f61	-0.003132783
94	0x3d81608c	0.06317243
95	0x3d7ea39a	0.06216774
96	0x3cd1270b	0.025531312
97	0xbc5abcc0	-0.013350666
98	0xbd3323c2	-0.043735273
99	0xbcb9dda8	-0.022688702
100	0x3d0b339e	0.033984773
101	0x3d118a81	0.03553248
102	0x3cd278e6	0.025692414
103	0x3cb9f14e	0.02269807
104	0x3ceadf2e	0.028670873
105	0xbd2fe60e	-0.042944007
106	0xba17ddfc	-0.0005793271
107	0x3dc2e6c3	0.095166706
108	0xbd14df0e	-0.036345534
109	0x3d771233	0.06032009
110	0x3b02136b	0.0019848
111	0x3b9abee8	0.004722465
112	0x3d0cfb75	0.034419496
113	0x3d564b9f	0.05231821
114	0x3bd73465	0.006567525
115	0xbd006e9f	-0.031355496
116	0xbbb764df	-0.0055967416
117	0xbae9b3d0	-0.0017830078
118	0xbb93acf8	-0.0045067035
119	0xbd685b6e	-0.05672782
120	0xbd885fee	-0.06658922
121	0xbd5e1c77	-0.054226365
122	0xbd301cf7	-0.042996373
123	0x3d31a3c9	0.04336909
124	0x3b348f9f	0.0027551425
125	0x3cab77f6	0.020931225
126	0xbb5e93dc	-0.0033962643
127	0x3ca683d4	0.020326532

network_body.linear_encoder.seq_layers.0.weight f4 [128, 141]
0	0xbdb4c37a	-0.08826347
1	0xbd57c361	-0.052676562
2	0x3de1b1cf	0.110202424
3	0x3e3b27aa	0.1827685
4	0xbe4cc91f	-0.19998597
5	0xbd678ddd	-0.056531776
6	0x3e6632a3	0.22480254
7	0xbe3982db	-0.18116324
8	0x3b422544	0.0029624263
9	0xbe320e9a	-0.17388383
10	0x3e378457	0.17921577
11	0xbe1641e9	-0.1467358
12	0x3ce060a4	0.027389832
13	0x3e46b336	0.19404301
14	0xbd8f761d	-0.0700495
15	0xbe759313	-0.23981886
16	0xbdb5aa27	-0.088703446
17	0x3ca07192	0.019585405
18	0xbd2c3260	-0.04204023
19	0xbd9dd981	-0.07707501
20	0xbc076ba8	-0.008265413
21	0x3ddbf53e	0.107401356
22	0xbdd1b00b	-0.10238656
23	0xbcb2971d	-0.021800572
24	0x3e58bbcb	0.21165387
25	0x3c187a9c	0.009306576
26	0x3d23f233	0.0400259
27	0xbda8551a	-0.08219357
28	0x3dd3dc68	0.103447735
29	0x3e6735de	0.22579142
30	0x3e0aa0f6	0.13537964
31	0xbebd252a	-0.36942416
32	0x3cdf0da7	0.02722819
33	0xbe46e6aa	-0.19423929
34	0x3dda7458	0.10666722
35	0xbdb1a7b6	-0.086745664
36	0x3eb2d951	0.34931424
37	0x3ce75467	0.028238488
38	0xbde09ff8	-0.109680116
39	0xbd47ef0a	-0.04881195
40	0x3e621ad2	0.22080544
41	0xbe20667c	-0.15664095
42	0x3e699600	0.22811127
43	0xbeaf59f3	-0.34248313
44	0x3d41da41	0.047327284
45	0xbd0c26b3	-0.034216594
46	0xbe17f824	-0.14840752
47	0x3de2c7ec	0.11073288
48	0x3e21b1a1	0.15790416
49	0xbe48cf0d	-0.19610234
50	0x3cea6103	0.028610712
51	0xbd7aec3e	-0.061260454
52	0x3d4536c3	0.048147928
53	0xbda29d9a	-0.07940216
54	0x3e604380	0.21900749
55	0xbe4949a7	-0.19657002
56	0xbd544904	-0.051827446
57	0xbd70a5dd	-0.05875193
58	0x3d95eee6	0.07320957
59	0xbe1f3021	-0.15545703
60	0x3eabdf5b	0.33568844
61	0xbed35fbd	-0.4128398
62	0xbe6f8e72	-0.23394182
63	0x3e83a527	0.2571194
64	0x3d6b0750	0.05738002
65	0x3cd8682c	0.02641686
66	0xbc1edb55	-0.0096958475
67	0x3d85ad28	0.065271676
68	0x3e3c6d5a	0.1840109
69	0xbb8e9ba3	-0.0043520494
70	0x3e858924	0.26081192
71	0x3c4d36e4	0.012525294
72	0xbea4c25b	-0.3217953
73	0x3e9b4a3d	0.30330077
74	0x3e56c8e4	0.20975071
75	0xbe3871fc	-0.18012232
76	0x3e69ec61	0.22844078
77	0xbc8660db	-0.016403606
78	0x3e2821d9	0.16419162
79	0x3e23e2aa	0.16004434
80	0x3cb2ca7e	0.021825071
81	0x3d131838	0.03591177
82	0xbcc3cdce	-0.023901846
83	0x3d260468	0.040531546
84	0x3e392edd	0.18084283
85	0xbe94e8d6	-0.2908389
86	0xbe239c9a	-0.15977708
87	0xbd8e1139	-0.06936879
88	0x3e6ebeca	0.23314968
89	0x3e7c6f0e	0.24651739
90	0x3db9d3c6	0.09073596
91	0xbe09cf63	-0.13458018
92	0xbe43cbcd	-0.19120713
93	0x3e259503	0.16170125
94	0x3e142125	0.14465769
95	0x3e1810b1	0.14850117
96	0xbcb9e922	-0.022694174
97	0x3c1b3707	0.009473569
98	0x3ab97b7c	0.0014151181
99	0x3bbb67ef	0.005719177
100	0x3dca03f5	0.09864036
101	0x3d69bac4	0.05706288
102	0x3e8fc402	0.2807923
103	0x3cbb69f0	0.022877663
104	0xbd51399e	-0.05108034
105	0xbdf73e5c	-0.12072441
106	0x3e298fa5	0.16558702
107	0x3e3588af	0.17727922
108	0x3e04a193	0.1295226
109	0xbe8a228f	-0.2697949
110	0x3e6fa8a3	0.23404174
111	0x3d913f6b	0.07092174
112	0xbe118885	-0.14212234
113	0x3cf2dbf8	0.029645905
114	0xbd438fca	-0.04774455
115	0xbd23a8ce	-0.039955907
116	0xbcd6b544	-0.026209481
117	0xbe32ae02	-0.17449191
118	0x3e3c7099	0.18402328
119	0x3e0f1358	0.13972223
120	0xbddcd5b5	-0.10782949
121	0xbd39655d	-0.045262683
122	0x3d801e66	0.06255798
123	0x3d16fdf0	0.036863267
124	0x3c275492	0.010213034
125	0xbd8b9642	-0.06815769
126	0x3e1e8ad1	0.15482642
127	0x3dcc50c0	0.09976339
128	0x3e9e90ef	0.3096995
129	0xbdad19e0	-0.08452201
130	0xbe0be70d	-0.13662358
131	0x3e17bed7	0.14818893
132	0xbb7c7b03	-0.003852547
133	0xbd3a5c75	-0.04549833
134	0x3d9354fd	0.071939446
135	0x3dc3a24c	0.0955244
136	0xbe25667f	-0.1615238
137	0xbd7cfc78	-0.06176421
138	0x3cc8bd13	0.02450422
139	0x3c2286c7	0.009919829
140	0x3d018d0c	0.031628653
141	0xbd137dcf	-0.036008652
142	0x3e6af9c1	0.22946836
143	0xbea09c5e	-0.313693
144	0xbe199ba5	-0.1500078
145	0xbcd104d4	-0.025514998
146	0x3e0b2881	0.1358967
147	0x3a74d08e	0.00093389384
148	0x3d4f958a	0.05067972
149	0x3dfd85a7	0.12379008
150	0x3e790b9a	0.24320832
151	0x3d6cf7a7	0.057853367
152	0x3e2748dc	0.16336387
153	0xbd112613	-0.0354367
154	0x3e6bb7f3	0.2301939
155	0x3e3ba88f	0.18326019
156	0x3d587c57	0.052852955
157	0x3e2de47c	0.16981691
158	0x3d0f6078	0.03500411
159	0xbe220197	-0.15820919
160	0xbe4447b3	-0.19167976
161	0xbc806643	-0.015673762
162	0xbe346952	-0.17618302
163	0x3cd4ec47	0.025991572
164	0x3d59a6be	0.053137533
165	0xbd918f8e	-0.07107459
166	0x3de25ed5	0.11053244
167	0x3debf885	0.11522011
168	0xbe154475	-0.14576896
169	0x3e0bce3d	0.13652892
170	0xbd579334	-0.05263062
171	0xbf0c33ca	-0.54766524
172	0x3e82b52b	0.25528845
173	0xb9246418	-0.00015677547
174	0x3d8c75aa	0.0685838
175	0x3b1f9224	0.0024348581
176	0xbbea0b1d	-0.007142438
177	0xbe6e5e73	-0.23278217
178	0xbd2426c9	-0.04007605
179	0x3de1c86b	0.11024555
180	0xbcfaf597	-0.030634684
181	0xbc138afd	-0.009005305
182	0xbe880c28	-0.26571774
183	0xbcb755fc	-0.022379868
184	0x3deb0751	0.11476005
185	0x3ded6d89	0.11593158
186	0xbe4a34ce	-0.19746706
187	0xbe58d30f	-0.21174262
188	0xbdc4be51	-0.096066125
189	0xbeab7161	-0.3348494
190	0xbdf553e7	-0.11978894
191	0x3da870d1	0.08224643
192	0xbe61278c	-0.21987742
193	0xbdd950e0	-0.10611129
194	0xbd29eac2	-0.041483648
195	0xbe37a95f	-0.17935704
196	0xbe9736a3	-0.29533872
197	0x3dfc2fda	0.123138145
198	0x3cf24986	0.029576074
199	0xbdaa903a	-0.0832829
200	0xbde15ee5	-0.11004428
201	0xbd8d5904	-0.06901744
202	0xbea67c10	-0.32516527
203	0x3e0ab469	0.13545384
204	0x3d4f9b9d	0.050685514
205	0xbe1c36f6	-0.15255341
206	0xbe48a6ee	-0.19594929
207	0x3de0ba6c	0.10973057
208	0x3e9a1150	0.30091333
209	0xbe70c50e	-0.2351267
210	0x3d9d783b	0.07688948
211	0xbeb90563	-0.36136922
212	0x3dcdb984	0.1004515
213	0x3c3833a6	0.011242783
214	0x3ed721b9	0.42017916
215	0xbe0e0a75	-0.13871177
216	0x3e957247	0.2918875
217	0x3e304359	0.17213191
218	0x3e825d69	0.2546189
219	0x3e2737d9	0.16329898
220	0xbe94ecb0	-0.29086828
221	0x3d8f70e9	0.07003958
222	0xbe2aa66f	-0.16665052
223	0xbe8845da	-0.26615793
224	0xbcb15b8b	-0.021650096
225	0x3e0ecdc5	0.13945682
226	0xbd965135	-0.07339708
227	0x3b746d05	0.0037296426
228	0xbe58bd59	-0.2116598
229	0x3d6dafbf	0.058028933
230	0x3e26621a	0.1624836
231	0x3df878bf	0.121324055
232	0xbddf9c82	-0.10918523
233	0x3e4bfafa	0.19919959
234	0xbec43b62	-0.38326555
235	0xbe582fc2	-0.21111968
236	0x3e7dec0e	0.24797079
237	0x3e57f33a	0.21088877
238	0x3d9c49ff	0.07631301
239	0x3e237eb5	0.15966304
240	0x3d054fee	0.03254693
241	0xbd46146f	-0.04835933
242	0x3dd78dc8	0.105250895
243	0xbe811f2e	-0.252191
244	0xbdc808a3	-0.09767272
245	0xbead0b7d	-0.33797827
246	0x3c055bd7	0.008139572
247	0xbe4b8eb3	-0.19878654
248	0xbd9ee108	-0.07757765
249	0x3dbbed29	0.09176094
250	0xbd133a96	-0.035944544
251	0xbe49826c	-0.19678658
252	0xbd50b931	-0.050957862
253	0x3dc53546	0.09629302
254	0x3dabfc24	0.083977014
255	0x3dc58214	0.09643951

network_body.linear_encoder.seq_layers.2.bias f4 [128]
0	0xbd44e51a	-0.04807005
1	0x3dbddb7b	0.09270378
2	0x3d157afa	0.036494233
3	0xbd920453	-0.07129731
4	0xbd0a27d3	-0.033729386
5	0xbd84d398	-0.06485671
6	0x3dc54f88	0.0963431
7	0x3de37f18	0.111082256
8	0x3d4a7c99	0.04943523
9	0x3be4efcf	0.006986595
10	0x3c84baf7	0.016202433
11	0x3dc4c131	0.09607161
12	0xbce86ad0	-0.028371245
13	0x3bba1609	0.0056788963
14	0x3beee524	0.0072904993
15	0x3d28eec1	0.04124332
16	0x3d253da9	0.040342007
17	0x3d019772	0.03163857
18	0xbd51de9c	-0.051237687
19	0x3c73f2be	0.014889417
20	0x3dbcb966	0.092150494
21	0x3cf3f7c1	0.029781224
22	0x3cd70e4a	0.02625193
23	0xbd01a3bd	-0.031650294
24	0x3bf4b957	0.0074683833
25	0x3d9d0f3e	0.07668923
26	0x3c8709c4	0.016484149
27	0x3c55aea3	0.013042125
28	0xbe04a345	-0.12952907
29	0xbce010e1	-0.027351798
30	0x3ceb7539	0.02874242
31	0x3d262044	0.040558115
32	0x3cea5bc8	0.028608218
33	0x3ca327a0	0.019916356
34	0x3a1c9287	0.0005972762
35	0x3c76bb88	0.015059359
36	0xbc5607e8	-0.013063408
37	0xbcbfb55b	-0.023401907
38	0x3c40dad6	0.011770925
39	0x3dff227f	0.124577515
40	0xbce40846	-0.027835976
41	0x3bdffc48	0.006835494
42	0xbd965619	-0.073406406
43	0xbd75e0d3	-0.060028862
44	0xbc4e8d7f	-0.0126069775
45	0x3be6f6de	0.007048472
46	0x3d9ab3f4	0.075538546
47	0x3d10c031	0.035339538
48	0x3d537831	0.051628295
49	0xbbef878e	-0.0073098605
50	0xbca854ff	-0.020548342
51	0x3c4d3491	0.01252474
52	0xbca78187	-0.020447506
53	0xbd9eb879	-0.07750029
54	0xbcfc5be1	-0.03080553
55	0x3d1d78cd	0.038445283
56	0xbcc6414f	-0.024201063
57	0x3c846a7a	0.016164053
58	0x3cefb1fd	0.029259676
59	0x3d81fc02	0.06346895
60	0x3d8561d7	0.06512802
61	0x3d810bff	0.06301116
62	0x3c894908	0.016758457
63	0xbb24f5d5	-0.0025170941
64	0xbcb32add	-0.021871025
65	0xbc785c50	-0.015158728
66	0x3c7f080d	0.015565884
67	0xbad12d79	-0.0015958986
68	0xbb890b95	-0.004182289
69	0x3b845fe7	0.0040397528
70	0x3e06c37b	0.13160507
71	0x3c77f3d3	0.015133816
72	0x3cfbf419	0.030756043
73	0xbc68dd68	-0.014212944
74	0x3dbc4700	0.0919323
75	0x3d0bc087	0.034119155
76	0xbbfec2f4	-0.007774705
77	0x3d6d8edd	0.057997573
78	0x3c32d67c	0.010915395
79	0x3d69986b	0.057030123
80	0xbc2bf9f1	-0.010496602
81	0x3c750a48	0.0149560645
82	0x3d27a155	0.040925343
83	0xbc5bc638	-0.013413958
84	0x3de9fb3b	0.114248715
85	0x3c5243d3	0.012833553
86	0x3d578678	0.052618474
87	0x3d9dbdac	0.07702193
88	0x3cdea0c6	0.027176272
89	0xbd2008ad	-0.039070774
90	0x3d446296	0.04794558
91	0x3b7e9928	0.0038848612
92	0x3ce15412	0.027505908
93	0x3df26faa	0.118377045
94	0x3d883d4c	0.066523165
95	0x3d3f91a2	0.046769746
96	0xbcf8b5d0	-0.030360132
97	0x3d8b83ea	0.0681227
98	0x3d106fd9	0.035262916
99	0x3d075931	0.033044044
100	0x3bd2818c	0.0064241346
101	0xbc1e09ab	-0.00964586
102	0x3d8185d7	0.06324356
103	0xbc4b2722	-0.012399467
104	0xbc9616b9	-0.018321382
105	0x3d0adb0b	0.033900302
106	0xbc281a61	-0.0102601955
107	0x3d313710	0.043265402
108	0xbc1e59fe	-0.0096650105
109	0xbcf64ed2	-0.030066881
110	0x3d8dfa24	0.06932476
111	0xbb12545b	-0.0022328112
112	0x3d96c9d6	0.07362716
113	0x3d57c8f4	0.05268188
114	0x3d1480b8	0.03625557
115	0x3bb01ed5	0.005374769
116	0x3d6e2c3a	0.058147646
117	0x3cf4ca9b	0.029881766
118	0x3d0a27ca	0.033729352
119	0xbd35c70a	-0.04437927
120	0xbce4d5ea	-0.027934033
121	0x3d164b86	0.03669312
122	0x3ca00e59	0.019538091
123	0x3b880f21	0.004152194
124	0x3ce94918	0.028477237
125	0xbd3da95b	-0.046304088
126	0xbdc59aeb	-0.09648689
127	0xbd0552f0	-0.0325498

network_body.linear_encoder.seq_layers.2.weight f4 [128, 128]
0	0xbdec51a3	-0.115390085
1	0x3dfbbdfa	0.122920945
2	0xbde38e5f	-0.111111395
3	0xbce26f45	-0.027640948
4	0x3d1df797	0.0385662
5	0xbccaca68	-0.024754718
6	0x3ca44913	0.020054376
7	0xbd819cc7	-0.06328731
8	0x3c871122	0.016487662
9	0x3c29848a	0.010346541
10	0x3ecd9be2	0.40157992
11	0xbe4cea6c	-0.200113
12	0xbe10eb65	-0.14152296
13	0xbe03df0f	-0.12878059
14	0xbe6982e0	-0.22803831
15	0x3cf81e09	0.03028776
16	0x3d8d50c1	0.06900168
17	0x3e3e8a47	0.18607436
18	0x3e829262	0.25502306
19	0x3bf475a1	0.0074603115
20	0xbddf5545	-0.10904936
21	0xbe2b0bdd	-0.16703744
22	0xbdf1ebb3	-0.11812534
23	0xbda3568b	-0.07975491
24	0xbe35c448	-0.17750657
25	0xbd765075	-0.060135324
26	0xbbdb9768	-0.0067013986
27	0x3daabe22	0.08337046
28	0x3e212751	0.15737654
29	0xbe6959b2	-0.22788122
30	0xbd9f2010	-0.07769787
31	0xbe6b86bc	-0.23000616
32	0x3d5073f3	0.050891828
33	0x3e6565f3	0.22402172
34	0xbe454a66	-0.19266662
35	0xbe00fdaa	-0.12596765
36	0xbe5771f1	-0.21039559
37	0xbe5cb415	-0.21553071
38	0xbe7ebb87	-0.24876224
39	0x3dc3f770	0.09568679
40	0xbe8f4c8d	-0.2798809
41	0x3e2d4a62	0.16922906
42	0x3d853f94	0.06506267
43	0x3dadd217	0.08487337
44	0x3c99765e	0.0187332
45	0x3d3a087d	0.04541825
46	0xbe426070	-0.189821
47	0xbbc41503	-0.00598395
48	0x3e82efdd	0.25573626
49	0xbc0cd58b	-0.0085958345
50	0xbd0dd371	-0.034625474
51	0x3dbd6971	0.09248627
52	0xbc3e7ca2	-0.011626394
53	0x3adf46a0	0.0017034598
54	0x3d967a13	0.073475026
55	0x3e019424	0.12654167
56	0xbc312378	-0.010811679
57	0x3deff1ba	0.117160276
58	0x3dbf2e5b	0.093350135
59	0xbec6561e	-0.38737577
60	0x3eacda24	0.33760178
61	0xbdfda2c9	-0.123845644
62	0x3cb94674	0.022616602
63	0xbe292bac	-0.16520566
64	0x3d8cee25	0.0688136
65	0x3d9abc57	0.07555454
66	0xbd778bb4	-0.060435966
67	0x3db65f90	0.08904946
68	0x3db6b9da	0.08922167
69	0x3e108115	0.14111741
70	0xbbf52cd9	-0.007482153
71	0x3e6ff352	0.23432663
72	0xbd39758c	-0.045278117
73	0xbcf2bc9d	-0.029630953
74	0xbe10d820	-0.14144945
75	0xbdf43f28	-0.119261086
76	0xbe9e6f16	-0.30944127
77	0xbe551ac0	-0.20810986
78	0xbcf746a2	-0.030185048
79	0x3c993375	0.018701294
80	0x3cb0fc24	0.021604605
81	0xbe5a357d	-0.21309467
82	0x3dd12459	0.10212011
83	0xbe463139	-0.19354714
84	0xbe6fbcd9	-0.23411883
85	0xbd8ff382	-0.07028867
86	0xbd9f6293	-0.077824734
87	0xbd722610	-0.05911833
88	0xbd9c29cf	-0.07625162
89	0x3e314d4b	0.17314641
90	0xbb53b058	-0.0032301154
91	0x3c87e3e1	0.016588153
92	0xbccecf16	-0.02524523
93	0xbe18983f	-0.14901827
94	0x3eb63c89	0.3559306
95	0x3ca560c2	0.02018774
96	0xbe0a9c48	-0.13536179
97	0xbda75764	-0.08170965
98	0xbdb37cbf	-0.08764028
99	0x3d39e271	0.045381967
100	0x3e1614a6	0.14656314
101	0x3cfec1e1	0.031098308
102	0x3d953511	0.07285512
103	0x3ab3af31	0.0013708827
104	0xbde71637	-0.11283534
105	0xbd33d91d	-0.043908227
106	0xbe314bd2	-0.1731408
107	0xbe8a49b4	-0.27009356
108	0xbdae5592	-0.08512415
109	0x3dabcab6	0.083882734
110	0xbe2ff10b	-0.17181794
111	0x3d9f4d67	0.07778435
112	0x3d3332c2	0.04374958
113	0xbe2bf1ff	-0.16791533
114	0xbd2c5e51	-0.042082135
115	0xbe9c4060	-0.30517864
116	0x3d144961	0.036202792
117	0x3dd785c1	0.105235584
118	0x3df8ee56	0.12154834
119	0x3d6fef2c	0.0585777
120	0xbe4b4bdc	-0.19853157
121	0x3deca288	0.11554438
122	0xbc1edf89	-0.00969685
123	0x3de1411e	0.10998748
124	0xbdcd602d	-0.1002811
125	0x3c86fa7a	0.016476858
126	0xbd4ceef9	-0.05003259
127	0x3dd92147	0.1060205
128	0xbdca71a5	-0.09884957
129	0xbda95102	-0.08267404
130	0xbe13a9e2	-0.14420274
131	0xbdbe274d	-0.0928484
132	0x3e844979	0.25837305
133	0x3dd1de9d	0.10247538
134	0xbebbfca8	-0.367162
135	0xbe1dfd40	-0.15428638
136	0x3e30cbe9	0.17265286
137	0x3d0ffccb	0.03515319
138	0xbe3ff0a2	-0.18744138
139	0x3e1a30bc	0.15057653
140	0x3e53c788	0.20681584
141	0x3e34eb5a	0.17667904
142	0xbdf9bc22	-0.121940866
143	0x3eaa5691	0.3326917
144	0x3bee87de	0.00727938
145	0xbdd7417e	-0.105105385
146	0x3de7b27f	0.11313342
147	0x3e0531e1	0.13007309
148	0xbe2fab00	-0.17155075
149	0xbd6128ab	-0.054970425
150	0x3e121d0b	0.14268892
151	0x3e3194d9	0.17341937
152	0xbde98487	-0.11402231
153	0xbd85768a	-0.0651675
154	0x3dc7f0aa	0.097627
155	0x3d8da590	0.06916344
156	0xbdb9a637	-0.09064906
157	0x3dd91a79	0.106007524
158	0xbe16d018	-0.14727819
159	0xbc1ef13c	-0.009701069
160	0x3e0c6521	0.13710453
161	0x3b217d69	0.00246414
162	0x3bf24142	0.0073930332
163	0x3d4e1e15	0.050321657
164	0xbe36eb2b	-0.17863147
165	0x3d9a07c6	0.07521014
166	0xbe01b4f1	-0.1266668
167	0x3e49ce63	0.19707637
168	0xbd5834dc	-0.052784786
169	0x3dd68c47	0.104759745
170	0xbd814d5f	-0.063135855
171	0x3dbd6cbb	0.09249254
172	0xbddc0fe5	-0.10745219
173	0x3e14d5e5	0.1453472
174	0xbdc1245a	-0.09430762
175	0x3c6584d0	0.014008716
176	0x3da12fc8	0.07870442
177	0x3e8cbeea	0.27489406
178	0x3bc9f9ac	0.0061637964
179	0xbd7beb1b	-0.06150351
180	0xbcd19812	-0.025585208
181	0xbd8c1689	-0.06840236
182	0x3cd12bd8	0.025533602
183	0xbcc97842	-0.024593476
184	0xbd808a6f	-0.06276404
185	0x3e891e40	0.2678089
186	0xbedc3472	-0.43008763
187	0xbdb54ca3	-0.08852508
188	0x3d53b1ff	0.051683422
189	0xbcac9052	-0.021064911
190	0xbe3adefd	-0.18249126
191	0xbd12e3fc	-0.035861954
192	0xbc3df5db	-0.011594261
193	0xbe018002	-0.12646487
194	0x3e6947b6	0.22781262
195	0x3e015b29	0.12632431
196	0x3c62efff	0.013851165
197	0xbd42d6a2	-0.04756797
198	0xbd8ceebf	-0.06881475
199	0xbe862076	-0.2619664
200	0xbd3b3556	-0.045705162
201	0x3de4d495	0.11173359
202	0xbd80661b	-0.06269475
203	0x3e0e25ee	0.13881657
204	0x3ab1c061	0.0013561362
205	0xbd21594d	-0.039391804
206	0xbe65db5c	-0.2244696
207	0x3d801a91	0.06255067
208	0xbd4bbcdb	-0.049740653
209	0x3e0162af	0.12635301
210	0x3db47b39	0.08812565
211	0xbeb22199	-0.34791258
212	0xbdc818f5	-0.09770385
213	0xbe795678	-0.24349391
214	0xbccec0eb	-0.025238475
215	0xbe3698d0	-0.17831731
216	0x3d927adf	0.07152342
217	0x3d8f1342	0.06986095
218	0xbe060538	-0.13087928
219	0xbd8595ee	-0.065227374
220	0xbe299914	-0.16562301
221	0xbe0fcbc6	-0.14042577
222	0xbdf48102	-0.11938669
223	0xbd31e2db	-0.043429237
224	0x3dda5d9d	0.106623866
225	0xbe01bbb4	-0.1266926
226	0xbe0632ba	-0.13105288
227	0x3d0f4942	0.034981973
228	0x3c187604	0.009305481
229	0x3df02179	0.117251344
230	0xbd075a8d	-0.03304534
231	0xbcec1ff6	-0.028823834
232	0xbca07d43	-0.01959098
233	0x3d6e624f	0.058199223
234	0x3c66b035	0.014080097
235	0x3e17147c	0.14753908
236	0xbdadec57	-0.08492344
237	0x3e9f98d2	0.3117128
238	0xbc84be53	-0.016204035
239	0x3e13aed0	0.14422154
240	0xbdba6531	-0.09101332
241	0xbd33a08e	-0.04385429
242	0x3d489ba1	0.048976544
243	0x3d4d3bec	0.050105974
244	0x3caa3afe	0.020780083
245	0xbd8cbe0f	-0.06872188
246	0xbd4cd052	-0.050003357
247	0x3cb02c17	0.021505399
248	0xbde154dc	-0.11002514
249	0xbd9f939e	-0.077918276
250	0xbe30f3bd	-0.17280479
251	0xbdca72a1	-0.09885145
252	0xbd46c7e7	-0.048530485
253	0xbd995598	-0.07487029
254	0x3e40ecee	0.18840382
255	0x3de2bf10	0.110715985
